onnx/tinynet.onnx (onnx, 676 bytes, 1 tensors)

conv1.weight f4 [1, 3, 3, 3]
00000000: 12ea cabd 88bd de3d 5fff eabc ef07 d23d
00000010: a602 0f3c 6343 1f3e e408 42be 8f09 283e
00000020: dc3f cebd d60b 41bd 905f 943d b77e 3dbe
00000030: 3496 fd3d b3ec 14be eaeb fdbd 770b 0a3e
00000040: 5ab9 2fbe 74d0 0fbe 5d54 c6bd 1657 3bbe
00000050: 1a10 2b3e 552c 9bbd d749 283e 1e0a bc3d
00000060: ebb0 edbc f6ee 11be e25b ea3d
-0.099079266 0.10875994 -0.028686224 0.102554195 0.008728659 0.1555305 -0.18948704 0.16409896
-0.10070774 -0.04713043 0.072447896 -0.18505369 0.123821646 -0.14543419 -0.12398513 0.13480936
-0.1716055 -0.14044362 -0.0968406 -0.1829494 0.16705361 -0.07576815 0.16434418 0.09181617
-0.029015025 -0.14251313 0.114433065
