onnx/vfe.onnx (onnx, 3792 bytes, 5 tensors)

pfn_layer0.0.weight f4 [64, 10]
000000 54 fc 2f 3e 7f 40 15 3e a4 0d 87 be e2 83 69 3e
       0.171861 0.14575385 -0.26377594 0.22804216
000010 51 67 9b be 5a f0 59 3e dc 03 64 3e c6 9f 87 3d
       -0.30352262 0.21283093 0.22267097 0.06622271
000020 5a cb 22 3e 83 e4 e1 3d 96 9f 24 3e 28 80 85 bc
       0.15897885 0.11029913 0.16076502 -0.016296461
000030 96 4e 1e be db 01 fe 3d 1c 27 8c 3e 9b a2 12 be
       -0.15459666 0.12402698 0.27373588 -0.14319842
000040 93 16 55 be 84 f6 54 3e 15 1e 43 be 4b d6 73 3e
       -0.20809393 0.20797163 -0.19054444 0.23812215
000050 da 7e a5 bd 9c 81 08 3e 43 c7 0f be 52 99 2c bd
       -0.08080836 0.13330692 -0.14040856 -0.042138405
000060 b0 15 4f be 54 2b bf bc ff cb 0f be e9 23 c4 3c
       -0.20223117 -0.02333609 -0.14042662 0.023942905
000070 b7 60 a1 be 6d a3 1d be 7e 9c 12 be c2 1f 81 be
       -0.315191 -0.15394373 -0.1431751 -0.25219542
000080 c0 9a 88 be 1a 1e 82 3e 6f c4 97 bd 9f 25 66 bd
       -0.26680565 0.2541359 -0.074105136 -0.056188222
000090 49 39 63 be 46 1e 00 bd 16 0d 13 be cb 05 d5 3b
       -0.22189821 -0.03127887 -0.1436046 0.0065009347
0000a0 12 40 90 be 52 e8 33 bd 6c e6 6b 3e 55 c0 74 be
       -0.28173882 -0.04392273 0.23037118 -0.23901494
0000b0 31 f5 8e 3e 1d 81 6d bd d4 90 c7 3d 3c 62 8a 3e
       0.2792144 -0.05798446 0.09744421 0.27028072
0000c0 fd c3 9b 3e 27 6e b2 bc 32 14 f7 bd b6 70 6a bd
       0.30422965 -0.02178104 -0.12064399 -0.057236396
0000d0 d0 d4 23 bd fe 8f 70 be 4e a0 61 3e b4 4d 9c 3e
       -0.039997876 -0.23492429 0.22033808 0.30528033
0000e0 73 01 e9 3d 43 05 03 3e 4a f9 c5 bd 65 b0 d4 3d
       0.113772295 0.12794976 -0.09666689 0.10385207
0000f0 97 12 4d 3d 81 e7 3f 3e 9b f2 95 be 6d 23 3e 3e
       0.050066557 0.18740655 -0.29286656 0.18568201
000100 14 b6 07 3e 60 e7 8d bc 76 55 a1 3e 92 9a 08 be
       0.13253051 -0.017322242 0.31510514 -0.13340214
000110 dd 93 82 be 09 81 a0 3e d2 94 20 be 11 1c 36 be
       -0.25503436 0.31348446 -0.1568177 -0.17784144
000120 3b c3 73 be ec 5e 7c be 55 23 06 3d 90 1b 19 be
       -0.23804943 -0.24645585 0.03274854 -0.1495192
000130 01 2c 49 be 75 7c 01 3d 82 73 10 3e f6 57 81 be
       -0.19645692 0.031612832 0.14106563 -0.2526242
000140 ab de 8b be 4e 54 a6 bc 96 fc a7 bd 0c bf 86 3e
       -0.2731832 -0.020303871 -0.08202474 0.26317632
000150 ff 28 67 be 82 65 21 3e e9 ff 7a 3e 20 6d 1f be
       -0.22574233 0.15761378 0.24511684 -0.15568972
000160 99 4b 07 3d 88 f2 18 be 60 e3 85 3e 0c 92 2f be
       0.03303108 -0.14936268 0.26150036 -0.17145556
000170 a2 7f 7f be 9b 7d 84 3e d1 1f 62 3e 7d 42 48 be
       -0.24951032 0.2587708 0.2208245 -0.19556613
000180 69 93 71 be 8d d4 af bd ce a3 54 3d e9 21 9c be
       -0.23591389 -0.08585463 0.05191403 -0.3049462
000190 02 c5 d4 3d 19 2c 84 be ff 96 8a be 60 1b 8f be
       0.10389139 -0.25814894 -0.27068326 -0.27950573
0001a0 7a 51 9d be ab 32 6d 3e 4d 25 96 be 18 cc bc 3c
       -0.30726224 0.2316386 -0.29325333 0.023046538
0001b0 a1 45 43 3e c6 c6 8b 3d df dd a7 bd 23 2b 85 be
       0.1906953 0.068250224 -0.081966154 -0.26009473
0001c0 bc 84 34 3d 77 f4 ce 3d f3 83 01 3e cf 58 7e 3e
       0.044071898 0.10105222 0.12647991 0.24838565
0001d0 be db 4d be 8d b3 d0 3d 5f 99 91 3c 2b 17 9b 3d
       -0.20103356 0.101904966 0.017773328 0.07572778
0001e0 1b 8b 9e be 84 80 82 3c 79 49 0f 3e 7e b2 31 3e
       -0.30965504 0.015930422 0.13992871 0.17353246
0001f0 3f 52 bf 3d 99 50 8b be 2c 66 83 be 24 f7 8c 3e
       0.09341859 -0.2720993 -0.25663888 0.27532303
000200 34 69 9a 3d c1 d8 95 be cc fa e6 ba e8 83 e8 bd
       0.07539597 -0.29266933 -0.0017622351 -0.11353284
000210 9e ae 87 3d 96 2f 77 be 7a 97 30 be aa b7 f7 3d
       0.066251025 -0.24139246 -0.17245284 0.12095578
000220 06 84 83 be 1c d2 67 3e b7 43 0b bd 22 a9 6b 3e
       -0.25686663 0.22638744 -0.034000125 0.23013738
000230 7a 68 6d be cd c2 82 be ba 6e 98 3e d9 c1 84 be
       -0.23184386 -0.25539246 0.29771978 -0.25929144
000240 52 13 a6 3c d4 6b 8f be 52 42 26 bd 51 b2 8e bd
       0.020272885 -0.28011954 -0.04059059 -0.06967605
000250 98 90 69 3e f8 f1 13 3a 08 18 1a be 5b e9 59 be
       0.22809064 0.0005643661 -0.1504823 -0.21280424
000260 cb f2 34 be 6a cb 19 3e e3 9b 34 3e 05 20 97 be
       -0.17670743 0.15019003 0.17637591 -0.29516616
000270 a9 3a 9c be 44 66 42 3e b7 0b 2d bd c0 8b 8a 3e
       -0.30513504 0.18984324 -0.0422475 0.27059746
000280 bf 32 9b 3e 44 42 e7 bb 50 46 06 3d e6 bb 7e be
       0.30312154 -0.00705746 0.0327819 -0.24876365
000290 07 7a 5d 3e a3 4f f6 bd f7 97 54 be c0 5d 93 be
       0.21628581 -0.12026908 -0.20761095 -0.28782463
0002a0 de af 92 bd ff 9f 30 be 87 6b 98 be 35 0b ab 3d
       -0.0716245 -0.17248534 -0.29769537 0.08351747
0002b0 0c bf 22 be f8 97 30 3e ca 81 79 3e 9c 86 f4 bd
       -0.15893191 0.17245471 0.24365917 -0.11939737
0002c0 15 a4 76 3e 79 47 e2 bd 60 85 85 3e 02 0f 88 bd
       0.2408603 -0.110487886 0.2607832 -0.066434875
0002d0 ec d2 a0 be 9c 57 ad bb f8 3c 77 be 1e 75 62 be
       -0.3141092 -0.005289985 -0.24144351 -0.22114989
0002e0 1f dc 27 be b5 a6 ba bd be f7 7e be 05 84 86 bc
       -0.16392563 -0.09113828 -0.24899194 -0.016420374
0002f0 2a 92 d9 3d f6 cb ba 3a ab b4 30 3e 48 09 11 3e
       0.10623582 0.0014251459 0.1725642 0.14163697
000300 a2 68 70 3e 3c c7 9a 3e dc aa 27 bb 7f d0 9b 3c
       0.23477414 0.3023013 -0.0025584018 0.019020317
000310 2b 24 7b be d1 62 b7 3d 55 55 81 3e a0 b4 14 be
       -0.24525516 0.089543946 0.25260416 -0.14522028
000320 76 e2 85 be 49 05 85 bd b8 68 f3 3d b2 58 75 3e
       -0.26149338 -0.06495149 0.11885208 0.23959616
000330 ca 41 c0 3d a1 b2 de bd 8e f9 99 be a9 25 36 be
       0.09387548 -0.108739145 -0.30073208 -0.17787804
000340 09 1f 12 3e 57 cb a5 bd f6 fc 6b 3e 60 dc 0b 3d
       0.14269651 -0.080954246 0.23045716 0.034145713
000350 66 5d 5d be 5e 50 00 3e de 4f 94 3d af 30 06 3e
       -0.2161766 0.12530658 0.07241796 0.13104509
000360 5a 4f b4 bd 20 97 4c be 72 1b dd bd 08 ab 99 bd
       -0.088041976 -0.19979525 -0.107962504 -0.07503325
000370 50 9f 58 3e 90 a1 4e 3e 14 92 e8 3d 73 c0 4d be
       0.21154523 0.20178819 0.11355987 -0.20092945
000380 16 b5 02 3e fb 8a 87 bd 75 11 8c 3e 0d cf 26 3e
       0.12764391 -0.06618305 0.2735707 0.16289921
000390 4a 1c c2 3d 95 c9 dc 3d 79 6a 1e bc ab 39 b7 3d
       0.09478052 0.10780636 -0.00966894 0.08946546
0003a0 29 74 2f be 36 2b df 3d 3b 30 25 be d8 4b ac bc
       -0.17134155 0.10896914 -0.1613168 -0.021032259
0003b0 b7 c4 5b bc a1 8d 54 3d 01 04 96 bd 34 c7 73 be
       -0.0134136 0.05189288 -0.073249824 -0.23806459
0003c0 88 67 3f bd d0 60 39 bd d4 c7 58 be e6 72 0f be
       -0.046729594 -0.045258343 -0.21169978 -0.14008674
0003d0 41 42 d5 bd 80 7a 81 3d f9 f6 2c 3e 75 79 44 be
       -0.104130276 0.06322193 0.16891088 -0.19186957
0003e0 96 d2 1a be 11 46 48 3e 0f f5 75 3d 09 0a 0d be
       -0.15119395 0.19557978 0.06004816 -0.1377336
0003f0 18 dc b1 3d 59 85 49 be da 72 eb 3d 6d 05 b3 bd
       0.08684558 -0.19679774 0.114965156 -0.08741269

pfn_layer0.1.weight f4 [32]
000000 00 00 80 3f 00 00 80 3f 00 00 80 3f 00 00 80 3f
       1.0 1.0 1.0 1.0
000010 00 00 80 3f 00 00 80 3f 00 00 80 3f 00 00 80 3f
       1.0 1.0 1.0 1.0
000020 00 00 80 3f 00 00 80 3f 00 00 80 3f 00 00 80 3f
       1.0 1.0 1.0 1.0
000030 00 00 80 3f 00 00 80 3f 00 00 80 3f 00 00 80 3f
       1.0 1.0 1.0 1.0
000040 00 00 80 3f 00 00 80 3f 00 00 80 3f 00 00 80 3f
       1.0 1.0 1.0 1.0
000050 00 00 80 3f 00 00 80 3f 00 00 80 3f 00 00 80 3f
       1.0 1.0 1.0 1.0
000060 00 00 80 3f 00 00 80 3f 00 00 80 3f 00 00 80 3f
       1.0 1.0 1.0 1.0
000070 00 00 80 3f 00 00 80 3f 00 00 80 3f 00 00 80 3f
       1.0 1.0 1.0 1.0

pfn_layer0.1.bias f4 [32]
000000 00 00 00 00 00 00 00 00 00 00 00 00 00 00 00 00
       0.0 0.0 0.0 0.0
000010 00 00 00 00 00 00 00 00 00 00 00 00 00 00 00 00
       0.0 0.0 0.0 0.0
000020 00 00 00 00 00 00 00 00 00 00 00 00 00 00 00 00
       0.0 0.0 0.0 0.0
000030 00 00 00 00 00 00 00 00 00 00 00 00 00 00 00 00
       0.0 0.0 0.0 0.0
000040 00 00 00 00 00 00 00 00 00 00 00 00 00 00 00 00
       0.0 0.0 0.0 0.0
000050 00 00 00 00 00 00 00 00 00 00 00 00 00 00 00 00
       0.0 0.0 0.0 0.0
000060 00 00 00 00 00 00 00 00 00 00 00 00 00 00 00 00
       0.0 0.0 0.0 0.0
000070 00 00 00 00 00 00 00 00 00 00 00 00 00 00 00 00
       0.0 0.0 0.0 0.0

pfn_layer0.1.running_mean f4 [32]
000000 00 00 00 00 00 00 00 00 00 00 00 00 00 00 00 00
       0.0 0.0 0.0 0.0
000010 00 00 00 00 00 00 00 00 00 00 00 00 00 00 00 00
       0.0 0.0 0.0 0.0
000020 00 00 00 00 00 00 00 00 00 00 00 00 00 00 00 00
       0.0 0.0 0.0 0.0
000030 00 00 00 00 00 00 00 00 00 00 00 00 00 00 00 00
       0.0 0.0 0.0 0.0
000040 00 00 00 00 00 00 00 00 00 00 00 00 00 00 00 00
       0.0 0.0 0.0 0.0
000050 00 00 00 00 00 00 00 00 00 00 00 00 00 00 00 00
       0.0 0.0 0.0 0.0
000060 00 00 00 00 00 00 00 00 00 00 00 00 00 00 00 00
       0.0 0.0 0.0 0.0
000070 00 00 00 00 00 00 00 00 00 00 00 00 00 00 00 00
       0.0 0.0 0.0 0.0

pfn_layer0.1.running_var f4 [32]
000000 a4 70 7d 3f a4 70 7d 3f a4 70 7d 3f a4 70 7d 3f
       0.99 0.99 0.99 0.99
000010 a4 70 7d 3f a4 70 7d 3f a4 70 7d 3f a4 70 7d 3f
       0.99 0.99 0.99 0.99
000020 a4 70 7d 3f a4 70 7d 3f a4 70 7d 3f a4 70 7d 3f
       0.99 0.99 0.99 0.99
000030 a4 70 7d 3f a4 70 7d 3f a4 70 7d 3f a4 70 7d 3f
       0.99 0.99 0.99 0.99
000040 a4 70 7d 3f a4 70 7d 3f a4 70 7d 3f a4 70 7d 3f
       0.99 0.99 0.99 0.99
000050 a4 70 7d 3f a4 70 7d 3f a4 70 7d 3f a4 70 7d 3f
       0.99 0.99 0.99 0.99
000060 a4 70 7d 3f a4 70 7d 3f a4 70 7d 3f a4 70 7d 3f
       0.99 0.99 0.99 0.99
000070 a4 70 7d 3f a4 70 7d 3f a4 70 7d 3f a4 70 7d 3f
       0.99 0.99 0.99 0.99
